meshlis_ai/sound_source_model.pth (torch, 307652 bytes, 8 tensors)

fc1.weight f4 [512, 3]
000000 03 b6 1e 3c 70 80 c4 be 50 4d 06 bf c9 30 c6 be
       0.00968695 -0.3837924 -0.5246172 -0.38709095
000010 a7 22 07 3f b2 ed 13 be 3d 22 6c 3c 83 15 a2 bb
       0.5278725 -0.14446142 0.01441246 -0.004946412
000020 64 92 9f 3e c7 bd a5 be c4 00 9d be 32 60 1b be
       0.31166375 -0.3237135 -0.30664647 -0.15173414
000030 c7 52 78 bd cd f7 ce be 20 de c3 bd 17 11 95 be
       -0.060625818 -0.40423432 -0.09563851 -0.291146
000040 e5 16 15 bf 02 6d c5 3e e0 58 c5 3e 86 f4 c0 be
       -0.5823806 0.3855973 0.3854437 -0.37686557
000050 21 1a 82 be b8 dd 1f bf f7 8e e7 3e 67 00 b9 3d
       -0.2541056 -0.6244769 0.4522626 0.0903328
000060 5e 33 87 3e ef b6 00 be e6 c7 b5 bd 1e 41 fc be
       0.26406378 -0.12569784 -0.08876018 -0.4926843
000070 73 4e b3 3e c8 03 0c 3f 4a 20 25 be 70 7d 1d 3f
       0.3502079 0.5469327 -0.16125599 0.6151953
000080 35 e5 f5 3e 83 23 9a 3e af 32 06 3f b2 e0 b2 bc
       0.48026434 0.30105218 0.5242109 -0.021835659
000090 80 e0 bb be c1 51 89 be 10 af 1e 3f e5 8f 0e 3e
       -0.36694717 -0.26820186 0.61985874 0.13922079
0000a0 cf 02 89 3e da 12 08 3e e3 58 cd be ef 3f 08 3f
       0.26759955 0.13288441 -0.40106878 0.53222555
0000b0 1e 3b 0c be f0 47 dc bd 13 2b 42 3e 07 3d eb be
       -0.13694426 -0.107559085 0.18961744 -0.45944998
0000c0 41 27 fe bc f6 28 44 3e 61 3f 0d bc 4e 4b 6d be
       -0.031024577 0.1915625 -0.008621068 -0.23173258
0000d0 22 1f b6 3e 08 c2 d9 be 8c e2 0b bf fb c9 35 be
       0.35570627 -0.42530847 -0.5464256 -0.1775283
0000e0 2e 54 d5 3d b1 b8 08 3e d1 39 2b be 63 e5 5c 3e
       0.104164466 0.13351704 -0.16721274 0.21571879
0000f0 68 62 05 3f d4 ee f2 3d ac ae 18 3e 30 6c cf 3e
       0.5210328 0.11861959 0.14910382 0.40512228
000100 5f 1e 08 3f 38 29 b3 be ca b5 02 3f 25 f3 40 3e
       0.5317134 -0.34992385 0.5105864 0.18842752
000110 38 b5 9f be 9f 13 0f bf aa bc a6 3c 64 c2 c4 3e
       -0.31192946 -0.55889314 0.020353634 0.38429558
000120 6e 5f 32 3e da 11 03 be b2 89 e2 3e fd db 08 3f
       0.17419216 -0.12799779 0.44245678 0.53460675
000130 ad 92 88 bd f6 3e a0 3e bc 74 5f bd 79 8a d1 3d
       -0.06668601 0.31298035 -0.054554686 0.1023149
000140 f5 72 10 3d 6d 84 62 3d 8d 04 a2 bd d6 5a 91 3e
       0.03526588 0.055302072 -0.07911024 0.28389615
000150 fc ba f6 3e 39 20 bf 3e bf 30 a0 3d 74 6a c0 3d
       0.48189533 0.3732927 0.078217976 0.09395304
000160 36 5a e2 3e 09 2b 0a be cf f6 39 3e 1b ff a7 3e
       0.4420945 -0.13492979 0.18160556 0.32811818
000170 62 5f 15 bf 27 94 91 bd 3c 84 b4 3e 57 6c 12 bf
       -0.5834867 -0.07108336 0.35257137 -0.57196563
000180 4b 57 f3 3e 05 7a 6b bd d9 fa 05 3f b8 a4 dc 3e
       0.47527537 -0.057489414 0.5233589 0.4309442
000190 eb d4 a5 3e 52 16 d7 be 21 7f ec be 7e 54 c4 be
       0.32389006 -0.42009217 -0.46190742 -0.38345712
0001a0 04 82 a2 bc 48 23 f8 be e2 83 c8 3e c1 1f 82 3e
       -0.019837387 -0.48464417 0.3916312 0.2541485
0001b0 5b c2 03 be 76 e1 a2 be 9b 03 77 3e a2 f3 b2 be
       -0.1286711 -0.31812638 0.24122469 -0.34951502
0001c0 e0 bb 05 bd de 7b cd be 65 77 b6 3e 6d 7b e9 3d
       -0.032649875 -0.40133566 0.35637966 0.11400495
0001d0 4e b3 f2 be 17 79 0b 3f b6 62 08 3e 80 3e 25 bf
       -0.47402424 0.54481643 0.13318905 -0.6454849
0001e0 83 44 61 3e 9f c4 a2 bd 87 84 03 bf 27 01 1a 3d
       0.21998791 -0.07947659 -0.51374096 0.037598755
0001f0 2f 45 0a 3f 93 b4 db be 84 41 30 be 48 8d e8 be
       0.54011816 -0.42911205 -0.17212492 -0.4542029
000200 b0 e9 be 3e cd 3a a6 3d 0f a4 aa be 52 cc e4 be
       0.37287664 0.08116684 -0.33328292 -0.44687134
000210 01 63 02 bf 58 ee 78 3d 54 36 7f be 02 65 68 be
       -0.5093232 0.060774177 -0.24923068 -0.22694781
000220 5d 64 80 be 95 8c 01 bc 3c 34 09 be cf 34 69 3e
       -0.2507657 -0.0079070525 -0.13398832 0.22774051
000230 29 b8 f2 be f8 95 d0 3e 4b 43 9c 3d 49 1c e8 be
       -0.47406128 0.40739417 0.076300226 -0.4533408
000240 fa 0d 85 3e 8a f9 a1 be 48 2a 18 bd ca 2d b6 be
       0.25987226 -0.31635696 -0.037149698 -0.3558181
000250 af 8b 8a bd 4a 5a 31 3e bf bd ed be 2d 2d 0f 3f
       -0.06764924 0.17319599 -0.46433827 0.5592831
000260 51 b6 06 bf fb b0 07 be 25 f9 3c be ba 31 07 bf
       -0.5262194 -0.13251106 -0.18454416 -0.5281025
000270 4e ed 1f 3f 33 98 02 be 7d 51 02 bf 5f 2c 9c be
       0.62471473 -0.12753372 -0.5090559 -0.30502602
000280 63 9c 99 be f7 74 95 3e f5 ea 52 3d bc bb d0 3e
       -0.30002126 0.291908 0.051493604 0.4076823
000290 21 89 f7 be 80 fa 8f bc 6b b4 e1 3e 1e 14 d6 be
       -0.4834681 -0.017575502 0.4408296 -0.41812223
0002a0 07 ea 20 3f cd 06 80 be 9a d1 a6 be 0c e7 e6 be
       0.628571 -0.2500519 -0.32581788 -0.4509815
0002b0 82 5f e2 3c 5f c9 ff 3e 1c aa b7 bd 62 00 86 3e
       0.027633432 0.4995832 -0.08967993 0.26172167
0002c0 cf 18 fc 3e 20 3b 79 bd 65 06 d3 be 11 4b e8 3e
       0.49237677 -0.0608474 -0.41215816 0.4536977
0002d0 34 31 e9 3c 63 11 1a 3f d1 90 8a be 0c ad af 3d
       0.028465845 0.6018278 -0.2706361 0.08577928
0002e0 87 ae 09 be 35 89 13 bf 0f 5f cc be 06 74 b8 3e
       -0.13445483 -0.57631236 -0.39916274 0.3602602
0002f0 32 06 f0 bc af 6d a7 3e ec 17 85 3c 71 13 59 3d
       -0.02929983 0.3270087 0.016246758 0.052997056
000300 68 ce d9 3e 7c 96 30 be fa 75 28 bd 39 f2 d9 3e
       0.42540288 -0.17244905 -0.041128136 0.42567614
000310 a2 23 3b 3e 2d 33 cd be 26 44 a8 be 2d 36 b6 bd
       0.18275312 -0.40078107 -0.32864493 -0.08897052
000320 4d 13 1a 3f 67 f2 ab be 92 da a9 be fe 3d a1 be
       0.601857 -0.33583376 -0.33174568 -0.3149261
000330 af d6 7b bd fa bf eb be f6 70 91 3e d9 a2 6f bd
       -0.061484035 -0.46044904 0.28406495 -0.058504913
000340 b1 1d 0f be 21 61 bd 3e 68 91 6a bd 9c cc dc 3e
       -0.1397617 0.36988166 -0.057267576 0.43124855
000350 ad f6 9c 3e 5b 5d 9a 3c 3f ff df be e2 87 d4 3e
       0.3065695 0.018843343 -0.43749425 0.4150992
000360 bf 04 13 be 42 c7 ad be d5 4f 84 3d 73 33 38 3d
       -0.14357279 -0.33941084 0.06460539 0.04497094
000370 9a d9 cb 3e 54 35 4f 3d f2 96 ea be 66 6e 36 3e
       0.39814454 0.050587967 -0.45818287 0.17815551
000380 16 80 f5 3e 61 a2 97 3e 17 09 d9 3e 61 58 a9 be
       0.47949284 0.29616073 0.42389748 -0.3307524
000390 47 ed ae be 93 01 d6 3e 09 f0 88 bd dc 77 07 3e
       -0.34165403 0.41798076 -0.06686408 0.13229316
0003a0 2d 9a 67 be 73 8a 5e be 27 4f 47 3e c8 4c 6e be
       -0.22617407 -0.21732502 0.19463788 -0.23271477
0003b0 29 53 22 be a8 23 54 be 5d 4b ff be a2 85 02 be
       -0.15852036 -0.20716727 -0.49862185 -0.1274629
0003c0 35 4a fc be bd a1 50 be 35 2a 1d 3f 4d 98 0c bf
       -0.49275365 -0.20374198 0.6139253 -0.5491989
0003d0 51 bb 82 3e dc 8b a2 be 4f cb 90 3e 12 10 33 be
       0.25533536 -0.3174733 0.28280112 -0.17486599
0003e0 42 42 7c 3e 00 0b 08 bf 20 9a 8e be d7 0b d5 3e
       0.2463465 -0.53141785 -0.27851963 0.41610596
0003f0 4b 28 d3 3e aa 2e a7 3e 2a 31 0f bf 84 31 95 bd
       0.4124168 0.3265279 -0.55934393 -0.07284835

fc1.bias f4 [512]
000000 0f a4 db bd 5d 69 d3 3d cc b5 d8 be 5c 93 08 bf
       -0.10724651 0.10322831 -0.423262 -0.5334985
000010 ce 07 10 bf c7 23 3e 3e 40 cc e1 3e fd 3f 8f 3e
       -0.5626191 0.18568335 0.44101143 0.27978507
000020 fb b2 19 3e e9 35 82 be 6f 5a bc be 33 39 e0 bb
       0.15009682 -0.25431755 -0.36787745 -0.006842756
000030 e6 fe af 3c 67 94 31 be e2 be aa bd 76 fa e1 be
       0.02148385 -0.17341767 -0.08337189 -0.441364
000040 ec f5 82 3e 2d ed d9 3e 65 7b bc be d9 4c c3 3e
       0.25578249 0.42563763 -0.36812893 0.38144568
000050 bc 68 81 bd 10 67 4f be 7f a1 cf 3e 3d 33 85 3d
       -0.063188046 -0.20254159 0.405529 0.065039136
000060 b0 95 2a bf 0a 1e a1 be 0d 74 b6 be 4b a5 26 be
       -0.66634655 -0.3146823 -0.35635415 -0.16273992
000070 c3 72 09 bf 83 d0 f6 be 9f 03 06 be 8f 23 d5 be
       -0.5369074 -0.48205957 -0.13087319 -0.41628692
000080 6f c7 b3 be b3 b9 80 be 4e a7 cd be 8a de a9 3e
       -0.35113093 -0.25141677 -0.40166706 0.33177596
000090 4e dc ba be 20 75 40 be a0 e5 f2 bd 0e 7d 40 bd
       -0.36496204 -0.1879468 -0.11860204 -0.04699426
0000a0 36 4d 11 3f e2 59 3f 3c e2 ef bb be 44 a7 fc 3e
       0.5675844 0.011679145 -0.36706454 0.49346364
0000b0 c7 f3 ba be af 59 d6 be f8 11 0b 3f dd a9 da bc
       -0.36514112 -0.41865298 0.54324293 -0.026692325
0000c0 e0 63 31 3e 08 ab e2 be ee eb 9c 3d 1b 87 ef 3e
       0.17323256 -0.4427111 0.076621875 0.46782765
0000d0 f1 bc 90 be d9 f7 06 3f d3 16 3a 3e 42 70 30 3e
       -0.2826915 0.52721936 0.18172769 0.17230323
0000e0 3a 43 52 3e f0 cf 72 3e 83 77 68 3e b2 81 b6 3e
       0.20533457 0.23712134 0.2270184 0.35645825
0000f0 5e b3 17 be df 80 d5 be cb ee c7 3e ed 06 09 3f
       -0.14814517 -0.41699883 0.39049372 0.5352619
000100 5b 83 67 bd ed e1 11 3c 52 8a 3d bd 40 8a 28 3e
       -0.056521755 0.008903963 -0.04627449 0.16458988
000110 6c 60 8c 3e 4f 7c 67 3e d6 92 44 be 00 c7 f7 bd
       0.27417314 0.22606014 -0.19196638 -0.12098503
000120 2e c4 31 3c 07 38 b4 be d8 00 da 3e af f1 c9 3e
       0.010849996 -0.35198995 0.4257877 0.39442202
000130 56 0e cc 3e 19 3e 97 3e 7d 69 77 3d 42 f6 21 bf
       0.39854687 0.29539564 0.060403336 -0.63266385
000140 c6 61 b3 3d 6a dd 9f be 7c b9 d3 3e 60 0a 05 bd
       0.08758883 -0.31223613 0.4135245 -0.032480597
000150 bf ad ae be 2f 29 b4 3e 70 68 c3 bc 70 a4 da 3e
       -0.34116933 0.3518767 -0.02385351 0.4270358
000160 9f 71 cf 3e 5f bc b4 be e3 04 53 be 22 c4 f1 3b
       0.40516374 -0.35299966 -0.20607333 0.007378117
000170 ae 18 1e bf 66 28 99 be 17 79 98 be 82 cb b4 be
       -0.6175641 -0.29913634 -0.29779884 -0.35311514
000180 d1 f0 95 3e c0 b4 94 bd 7a 41 fc 3e e9 29 89 3e
       0.2928529 -0.07261038 0.49268705 0.26789787
000190 93 41 bc 3d 67 80 be be 5f 62 aa 3e 5e 64 d0 3e
       0.09192195 -0.37207338 0.33278176 0.40701574
0001a0 50 9d 0c 3f 3e cd 9e 3e 71 d6 13 3f 42 ce b3 be
       0.5492754 0.31015962 0.57749087 -0.351183
0001b0 e5 a2 8f 3e a7 09 0a bf 29 48 92 be 4e 3f e3 3e
       0.28053966 -0.5392098 -0.2857068 0.44384235
0001c0 e4 44 25 bf b2 05 e7 3e 32 7f 0d bf d8 b4 14 bf
       -0.64558244 0.45121533 -0.5527221 -0.58088446
0001d0 72 b1 03 3f f9 52 10 bf dc 50 bf 3e d3 9a 1b bf
       0.51442635 -0.56376606 0.37366378 -0.6078312
0001e0 87 73 2d 3e a0 27 e6 be aa 0b 80 3e 03 aa e9 bb
       0.16938601 -0.44952106 0.250089 -0.0071308627
0001f0 2b 64 81 be 37 ef 22 be fa 4d 9b 3e da eb 15 3e
       -0.25271735 -0.15911566 0.3033293 0.14640751
000200 3a c2 0b 3d 87 fa f3 bd 02 37 16 3e 44 88 36 be
       0.034120776 -0.11913019 0.14669421 -0.17825419
000210 3c 29 93 be 4f 8d 55 be 6a 85 0e be dd 04 1a bf
       -0.28742397 -0.20854686 -0.13918081 -0.6016367
000220 78 21 38 be db ac 83 3e 28 0a 19 bf 1a 7e 42 3c
       -0.17981517 0.25717816 -0.5978112 0.011870885
000230 17 84 fb 39 af 1f 46 bf da 96 17 3e 9d 69 59 be
       0.00047972865 -0.77392095 0.14803639 -0.21231695
000240 1b 7e 9a 3e 4c 9e 05 bf 55 96 a3 be 90 59 db bc
       0.30174336 -0.52194667 -0.31950632 -0.026776105
000250 27 88 cf be e7 09 dd 3e fc 5c 13 be c8 62 4d 3e
       -0.40533563 0.43171617 -0.1439094 0.20057213
000260 ae 9a 0e be 38 9f b8 3e 77 82 d6 be b1 ce 26 3e
       -0.13926193 0.36058974 -0.41896412 0.16289784
000270 15 99 63 be 51 fd a6 3e b6 80 dc be 5a 97 0b 3e
       -0.22226365 0.3261514 -0.4306695 0.13631955
000280 01 90 fc 3d 5e cf b4 3e 5d 43 93 be 7b 11 b2 3e
       0.12332154 0.3531446 -0.28762332 0.34778962
000290 d8 0f 0e 3f 80 1b 90 3e fc ca 0e 3e 7b 90 46 3d
       0.55492926 0.2814598 0.1394462 0.04847763
0002a0 0e 2b 6e 3e 17 2e b7 3e 08 73 42 3d 0a 05 89 3e
       0.23258612 0.3577735 0.047472984 0.26761657
0002b0 3a f5 ac 3e 45 89 07 3f 2a 26 1b 3f e1 51 d5 3e
       0.33780843 0.5294383 0.6060511 0.4166403
0002c0 6a 33 26 be 63 59 72 be bf d2 d3 be 8f ed a3 be
       -0.1623055 -0.23666911 -0.41371724 -0.3201718
0002d0 ab e3 d4 be 42 61 b4 3e 9a c5 ea be 4e ab 07 bf
       -0.41579947 0.35230452 -0.45853883 -0.52995765
0002e0 22 d8 52 3e 88 e7 6b 3e f9 3f fc 3d a9 e1 95 3d
       0.2059026 0.23037541 0.12316889 0.07318432
0002f0 55 ba 1a 3f aa e7 2b bd b3 08 c8 be 71 5a 14 3e
       0.6044057 -0.04196898 -0.39069137 0.14487626
000300 74 c7 cc 3e f0 4a f0 be 1b 78 81 3e e2 29 29 3e
       0.3999592 -0.46932173 0.25286946 0.16519883
000310 b4 3c 15 bf c1 15 ab 3e c4 a0 ee 3e 33 9c c4 3e
       -0.5829575 0.33415034 0.4660703 0.3840042
000320 6b 18 ac 3d a8 e5 46 bf f6 59 a2 3e 4c 34 f8 3e
       0.08403095 -0.7769418 0.3170926 0.484774
000330 68 36 e9 be 80 ca 17 bf e4 64 0c bf 70 a3 3a 3e
       -0.4554932 -0.59293365 -0.54841447 0.18226409
000340 25 7f 8b bd b9 16 51 3e df 0e 88 3d 4b 72 1c bf
       -0.0681136 0.20418824 0.066434614 -0.611119
000350 05 6c a2 be b1 b9 e6 3e f1 4f fb 3e 0d e2 b4 bb
       -0.31723037 0.45063546 0.49084428 -0.0055201114
000360 9b 2b e3 3d 7d 54 6c 3e 06 16 f6 3e ad 3e 01 3f
       0.110923015 0.23079105 0.48063678 0.5048626
000370 97 5c bf 3e de 60 a3 3e b8 5d f5 be e4 99 a6 3e
       0.37375328 0.3190984 -0.47923064 0.32539284
000380 4a 71 31 be 34 f1 08 bf eb 56 4c 3d 3a a7 e7 3e
       -0.17328373 -0.53493047 0.04988758 0.4524477
000390 53 e4 05 bf f7 af 9d be 1e 46 28 bd ec 42 47 be
       -0.5230152 -0.30798313 -0.041082494 -0.19459122
0003a0 8a 8a 02 3f 76 7d 21 bf ff df 38 be 78 69 83 be
       0.50992644 -0.63082063 -0.18054198 -0.25666404
0003b0 d8 59 10 3f 31 d8 6d be a4 1e c5 be c6 bc 9f be
       0.5638709 -0.23227002 -0.3849994 -0.3119871
0003c0 3d e6 d1 3e fb 4e da 3e 26 bf da 3e 74 48 2f bf
       0.4099597 0.42638382 0.4272396 -0.6846993
0003d0 76 d4 9a be 54 28 4f bf 11 17 f7 3d 9a f2 0e 3e
       -0.3024022 -0.8092091 0.120649464 0.13959733
0003e0 5e 91 7b 3e 95 68 67 bd dd 1e 08 3f 14 63 33 be
       0.24567172 -0.05649622 0.53172094 -0.17518264
0003f0 09 38 e2 be 28 b4 7e bd e3 87 d8 bc 84 c3 89 be
       -0.44183376 -0.06218353 -0.026431983 -0.2690698

fc2.weight f4 [128, 512]
000000 a4 7f c0 3c 75 df eb bd 58 d2 e0 bc 6e ff cb 38
       0.023498364 -0.115172304 -0.02744405 9.727372e-05
000010 f1 c8 27 3d 4d 31 eb 3c af ef 91 3c e4 90 08 bd
       0.040963117 0.028710032 0.017814485 -0.033341303
000020 c2 5a 8a 3c 74 64 8a 3c 13 93 fe bc 78 d3 9f 39
       0.01688898 0.016893603 -0.03107599 0.000304844
000030 aa 5b 7d 3d 00 f4 0c bd 15 e9 83 3e 56 e2 9b bd
       0.061854996 -0.034412384 0.25763765 -0.076115295
000040 d8 05 7a bc f9 69 a1 bd 07 6a a4 bc 8d 0e 7f 3d
       -0.015260182 -0.07881541 -0.020070089 0.062269736
000050 bd 1f fd bc c7 cc 7a bd e5 a3 0c 3d 80 fb cc bc
       -0.030898923 -0.061230447 0.03433599 -0.025022268
000060 4a 3c a1 bd 19 e3 9b bc 3b fa 82 3c ac c7 83 bc
       -0.07872827 -0.019029187 0.01598846 -0.016086422
000070 db 9e 17 bd 1f 89 c6 bd 74 ce af be d7 2c 4f bd
       -0.03701673 -0.096941225 -0.343372 -0.050579872
000080 86 a5 b1 3c ec 74 60 bd 66 45 c0 3c e0 d4 87 bd
       0.021685373 -0.054799005 0.023470592 -0.066323996
000090 0f 41 f1 bd 18 1f 07 3c 34 86 e0 be d4 f7 44 bd
       -0.11779987 0.008247159 -0.4385239 -0.04808791
0000a0 98 5d fd 3c 4b e3 8b bd 1c ee a2 3b 9c 6c 2e 3d
       0.030928418 -0.06830462 0.0049722325 0.042584047
0000b0 92 3a 18 bd 95 11 bc bb fb ba f3 bc ef 67 9d bd
       -0.037165232 -0.0057394006 -0.029752245 -0.076858394
0000c0 23 c3 80 3d 78 3a 9f bd 19 d8 4c bd 9f ba 29 3c
       0.062872194 -0.07774824 -0.050010774 0.010359435
0000d0 67 59 19 3c 48 9a aa 3d 9f a6 83 bd 12 2b 0b bd
       0.009359694 0.08330208 -0.06428265 -0.033976622
0000e0 13 10 42 3d fd ad 84 bb 7f 14 ca bc ac e2 52 3d
       0.04737861 -0.0040490613 -0.024667976 0.051485702
0000f0 67 99 11 bd 4b 87 4f bd bb 35 88 3a 49 b1 0e 3d
       -0.035546687 -0.050666135 0.001039199 0.03483704
000100 b2 31 d6 bc 52 bc 91 bd 27 1e df bc db 15 ae 3c
       -0.026146743 -0.071159974 -0.027236057 0.021250656
000110 2e 05 57 3d f7 ed 8d 3d e4 99 59 bd 1f 5e 13 3e
       0.052495174 0.06930154 -0.053125277 0.14391373
000120 1d ca 93 bb b8 4d d3 bc 59 b8 0a 3d 50 a3 32 3c
       -0.0045101778 -0.025793895 0.033867214 0.010903195
000130 67 c8 be bc ea 4e e5 3c 7c 5e 29 bc ae a5 aa bc
       -0.023288919 0.02799173 -0.010337468 -0.020830955
000140 8d aa 00 3d bf ce 31 bc 06 11 38 3d 8e ae 6e 3d
       0.03141265 -0.010852515 0.04493811 0.058271937
000150 05 a9 07 be e7 e9 45 bd 92 e2 11 3d 33 1f b0 bc
       -0.1324807 -0.04831877 0.035616465 -0.021499252
000160 f0 d3 20 3c a6 d1 dd 3c c0 00 21 3d fd bc 66 bc
       0.009816155 0.027077507 0.039307356 -0.014083144
000170 87 0d bf 3b 15 a8 29 bd 59 31 9d bd 07 60 20 bd
       0.00583047 -0.04142006 -0.07675428 -0.03915408
000180 b6 f0 74 3c 97 d4 7f bc 09 f4 2f 3d 01 97 7c 3c
       0.014949968 -0.01561465 0.04295734 0.0154168615
000190 59 ac f5 3d 5d b2 ba bd 10 69 78 bd a8 f4 21 bc
       0.11995763 -0.09116051 -0.06064707 -0.009884991
0001a0 46 d4 1f 3c 2e 82 24 bd c5 c7 96 3d 1d 46 6d bd
       0.0097552 -0.04016321 0.07362322 -0.057928193
0001b0 cb 77 86 3d 87 85 a0 be e2 24 f9 3c 01 74 ff bc
       0.065658174 -0.31351873 0.030413095 -0.031183245
0001c0 be b5 3d 3d 64 b4 92 bd c9 ae 0b be 3d f7 20 3b
       0.0463159 -0.07163313 -0.13640894 0.0024561428
0001d0 07 58 e3 3c 1e 65 8d bd a3 bb 85 3d 5a 41 2f bc
       0.027751936 -0.06904052 0.065299295 -0.010696733
0001e0 85 8f 79 3c 4f 0e a6 bd 5b 00 a8 3c a6 7e 52 3d
       0.015231972 -0.08108198 0.020507982 0.051390313
0001f0 02 df 00 bc a8 66 dc 3c 1d 5c 6c 3d 18 14 8f bd
       -0.007865669 0.026904419 0.057705034 -0.069862545
000200 d8 2e 76 3d 9c 59 a3 be 6f 10 65 3d 6c f5 2b be
       0.060103267 -0.31904304 0.055923875 -0.1679284
000210 ae 07 3e 3c 63 dd 53 3d b8 da 9f 3d 33 6a dd bc
       0.011598511 0.051724803 0.07805389 -0.027028179
000220 a9 bd 1c 3d af dd 79 3d 61 41 a1 3c e5 c5 42 bc
       0.03826681 0.06100243 0.019684495 -0.011888002
000230 43 9f 14 bc 9c a9 37 3d b0 40 65 3d 98 25 c1 3c
       -0.009071174 0.044839486 0.055969894 0.023577496
000240 8c bf 80 3d d9 d9 0b be 3b 27 0d 3d 41 ee a8 bb
       0.06286535 -0.13657321 0.03446124 -0.005155355
000250 c0 9f 2c 3d 5a b0 85 3d d4 d8 7d bc 64 c7 b7 3c
       0.042144537 0.06527777 -0.01549359 0.022433944
000260 b7 67 1b ba 2d 05 e9 3c 45 83 0c 3d 4e a2 e0 3c
       -0.00059282355 0.02844485 0.034304876 0.027421143
000270 2c ae ec bb 24 e9 23 3c 0c 7c 29 3c d0 42 c6 bd
       -0.0072229113 0.0100043155 0.0103445165 -0.09680712
000280 4c 15 2a 3c 7c d7 e7 3a ad 03 7e bc 9d 19 7a bc
       0.010381054 0.0017688121 -0.015503806 -0.015264896
000290 54 56 7d bc 55 5a 9d 3c 42 73 90 bc 20 f5 e3 3c
       -0.015462477 0.019208113 -0.017633084 0.027826846
0002a0 01 23 93 bd ab a1 b3 3d 4c 33 88 3d f9 3a a5 3d
       -0.07184411 0.0877107 0.06650409 0.08067889
0002b0 95 51 f6 bc bb 75 49 3d cf ae 59 3d 0d 2a fd 3c
       -0.030068198 0.049184542 0.053145226 0.03090384
0002c0 6f 32 44 bd 50 7e 84 bd d7 13 4e bd 5d 38 d6 bc
       -0.04789966 -0.06469405 -0.05031189 -0.026149923
0002d0 d0 b6 4b 3c 00 b6 85 bb 10 68 21 be 56 39 a1 bc
       0.012433723 -0.004080534 -0.15762353 -0.01968066
0002e0 51 6f c4 bc 95 6a c7 bd 05 ca a7 3c a2 8c 65 3d
       -0.023978861 -0.09737126 0.020482073 0.05604232
0002f0 a4 2d d8 3c 20 23 5c bb ec e8 de bd 79 71 b8 bc
       0.02638895 -0.0033590272 -0.1088427 -0.022515045
000300 17 25 af ba 50 af 18 3d 5b 72 1f bd 35 d3 1f bd
       -0.0013362494 0.037276566 -0.038927417 -0.039019782
000310 18 4b 81 bc ff 0e 90 3d e1 00 a7 bc 1c 87 93 bc
       -0.015782878 0.0703411 -0.020386161 -0.018008761
000320 54 f6 bc 3d c1 77 7a be 50 9c 78 bd d9 63 56 3c
       0.09226671 -0.24459745 -0.060695946 0.013085329
000330 dc be d8 be 37 8d 3c bd 78 36 3d bc 62 1a ce 3d
       -0.42333114 -0.04603311 -0.011548631 0.10063626
000340 11 3e 7e bc 0e 2d 6b 3d 13 23 e4 bb 03 87 7a be
       -0.0155177275 0.057416014 -0.006962189 -0.24465565
000350 6f 88 37 bd f2 ac 0c bd f8 60 a5 3d 48 af 00 bd
       -0.044807848 -0.03434462 0.08075136 -0.03141716
000360 2f 71 cc 3c 06 80 b2 bc a4 bf 36 bd 74 c3 f6 3c
       0.024956314 -0.021789562 -0.044616356 0.030122496
000370 42 67 c1 3c b9 c5 d3 3c 95 bb 24 bd 10 13 36 bc
       0.023608807 0.025851117 -0.040217955 -0.011112943
000380 03 02 3d bd 7c 31 eb bc 72 45 1b 3c cb 7a 42 3d
       -0.046144497 -0.02871012 0.009477006 0.047480386
000390 5a f9 98 3d bf 62 42 bd da a1 35 3c ef 30 2c bb
       0.07469435 -0.047457453 0.011085952 -0.0026274284
0003a0 be a4 8b bc 6f c8 cf bb bc 5f 76 3c 31 4f b3 3d
       -0.017046329 -0.006341032 0.015037473 0.08755339
0003b0 39 8f a9 bb 0c 11 2e bd 8a 4c e2 bc 4c 62 0c bd
       -0.005174544 -0.042496726 -0.027624387 -0.03427343
0003c0 42 c4 92 ba 21 28 04 bd ad 0c 04 bc c7 98 65 bc
       -0.0011197405 -0.032264832 -0.008059663 -0.014013476
0003d0 18 90 03 3d 2c f0 82 be 0a 29 ee bd d6 3f a2 3d
       0.03211984 -0.25573862 -0.11628921 0.07922332
0003e0 6c dc 83 3d b6 7d 1a 3d 0f e4 64 3d ed b8 fc 3c
       0.064385265 0.037717544 0.055881556 0.030849898
0003f0 29 be b6 3c 34 c6 86 3d 21 0f 32 bd e0 ba 22 bd
       0.022307472 0.06580773 -0.04347146 -0.039729

fc2.bias f4 [128]
000000 45 dd a7 3c 89 e7 82 3d c5 21 12 3d ff b2 77 bd
       0.020491252 0.06391818 0.035676736 -0.06047344
000010 e5 f5 58 3d 85 70 a5 bc fe b0 14 bd 6e 83 38 3c
       0.05296888 -0.020195255 -0.036301605 0.011261804
000020 52 3e 74 bc 5c 6a d5 bc cf bd 7c 3d 47 43 8f 3d
       -0.014907436 -0.026051693 0.061704453 0.06995254
000030 78 fe 8c 3c d2 5e 95 3d 86 ba 00 3d c2 54 b9 bc
       0.017211184 0.07293476 0.031427883 -0.022623423
000040 13 94 63 3c e1 74 3c 3c d6 81 72 bc 19 21 88 bc
       0.013890284 0.0115024755 -0.014801463 -0.016617345
000050 1c bb 52 3d b1 af b4 3c fa a2 45 bd 34 68 ed 3c
       0.051447973 0.022056432 -0.04825113 0.028980352
000060 e7 1b 0e bd f7 77 c5 bc 72 6e 91 bc ca a5 8d bc
       -0.03469458 -0.024105055 -0.01775286 -0.017290968
000070 a3 0f 23 3b b8 ca 04 3d d3 c2 65 3c 3f cf 12 3d
       0.0024881146 0.03241989 0.0140235005 0.035842177
000080 0f 20 f9 bc bb d7 a2 bc 01 b4 ff ba 76 66 12 3d
       -0.030410795 -0.019878259 -0.0019508601 0.035742246
000090 38 cd c4 bc f8 a4 46 bd 11 32 ad 3c 4d 56 85 3c
       -0.024023637 -0.04849717 0.021142038 0.016276503
0000a0 2c 73 5d bd b9 7e fb bb 78 61 98 3d bd 39 1c 3d
       -0.054064915 -0.0076750186 0.07440466 0.038141
0000b0 b8 11 87 3b c0 b0 e7 ba fb 05 4c 3c db 17 36 bc
       0.0041219853 -0.0017676577 0.012452598 -0.011114086
0000c0 38 f2 d4 bb 43 a1 a4 3c 8e 74 36 3c 48 50 20 3d
       -0.0064986013 0.020096427 0.011136187 0.039139062
0000d0 70 bf 40 3d 4c 78 b4 bc 32 4e 05 bd c9 14 04 bd
       0.04705757 -0.022030018 -0.032545276 -0.032246385
0000e0 33 26 2e bd c5 18 45 3d f7 1f 44 3d 3a 2f 2f 3d
       -0.0425169 0.048119325 0.047882047 0.042769648
0000f0 5f 7f db 3c fb 46 5a 3d 45 68 a5 bb e7 a0 23 bd
       0.026794134 0.05329035 -0.0050478303 -0.03994837
000100 18 8a 89 3d 5b b9 6f bc 20 f4 aa bb 24 45 28 3d
       0.067157924 -0.0146315945 -0.0052170902 0.041081563
000110 61 dd 75 3d 58 48 58 3d b9 2c 32 ba ac 2e 31 3c
       0.060025577 0.052803367 -0.00067968253 0.01081435
000120 82 50 10 bd 20 d8 ce 3c b0 77 97 bb 1e f7 ca 3c
       -0.03523303 0.02524954 -0.004622422 0.024776038
000130 af 0c b7 3c 54 ea be 3c 89 62 4c 3d ec de 47 bd
       0.022344915 0.023305096 0.049898658 -0.04879658
000140 7b 64 08 3d b6 10 a6 bc 4e f4 da bc d9 50 11 3d
       0.03329895 -0.02027164 -0.026727822 0.035477493
000150 e2 4b 95 3c 05 f1 06 bd f4 51 99 bc 04 bd 26 3d
       0.01822466 -0.032944698 -0.018715836 0.040707603
000160 c8 47 51 bc fc 17 38 bc d4 81 94 bc d9 2f 6f 3d
       -0.012773462 -0.011236187 -0.018128313 0.05839524
000170 d4 5d 0f 3d 44 48 22 bc fd ef 67 3c b7 0a cf bc
       0.03500159 -0.009904925 0.014156339 -0.025273664
000180 34 a4 4e bd 8c 6c f4 3c 36 ae 7e bc b3 9b 31 bd
       -0.050449565 0.029836915 -0.015544465 -0.043361377
000190 e7 65 a2 3c ab 7f ed 3c bf bc a4 3c 9f a3 b0 3b
       0.019823981 0.02899154 0.020109532 0.005390599
0001a0 36 54 91 3c 2e dd 8e bb 23 53 23 3d 1d 2e 7f 3d
       0.01774035 -0.0043598628 0.039874207 0.062299836
0001b0 f9 a8 45 3d 4b 3d 65 3d f9 7c 02 3c 8e e0 24 bd
       0.048256848 0.055966657 0.007964366 -0.040253215
0001c0 f4 67 1b 3d 1f 18 ca 3a bc dc e2 3c 11 98 ec 3c
       0.037940934 0.0015418566 0.027693145 0.028881105
0001d0 08 31 d8 bc 08 6c 09 3d 6b 74 71 3c eb 4a ac 3c
       -0.026390567 0.033550292 0.014737229 0.021031817
0001e0 a2 79 ab bb 7c bc 5e bc f2 18 c7 bc 8e 77 5a 3d
       -0.0052330056 -0.013594743 -0.024303887 0.053336672
0001f0 8b a0 12 3d ac f7 44 3d 5e a4 a6 3c 76 4f b9 3a
       0.035797637 0.04808776 0.020342048 0.0014138061

fc3.weight f4 [64, 128]
000000 e2 38 9d bd 8d 5d 6f 3d f0 6b 4c 3d 4b 60 3f 3d
       -0.07676865 0.058438826 0.049907625 0.04672269
000010 d6 f7 12 bd b1 6c 6f bc 6d db 81 3b 2a 69 58 3d
       -0.035880886 -0.014613316 0.003962925 0.052834667
000020 95 c6 85 3c db 14 82 bd c5 26 8b bd 1a 43 28 3c
       0.016330043 -0.06351634 -0.06794504 0.0102699045
000030 1b f1 24 bd ff ea 17 3d 38 11 b5 3d c4 87 e1 bc
       -0.040269 0.037089344 0.08841175 -0.027530558
000040 37 e8 17 bc 14 68 2c 3d 24 0a 6a 3b b6 14 f4 3d
       -0.009271673 0.042091444 0.003571161 0.11918013
000050 0c 02 cb bd 84 44 33 bd bb 08 94 bd 0a e5 9f 3d
       -0.099125 -0.043766513 -0.07228228 0.078073576
000060 18 34 be bc fe b6 21 3b 04 94 be 3d 4c eb 2b bd
       -0.0232182 0.0024675722 0.093055755 -0.041972443
000070 56 d8 39 bd d9 bb 8a be cb f9 41 3c 8f 90 b4 bd
       -0.04537233 -0.2709644 0.01183934 -0.08816635
000080 7f 0e 76 3d 6f 4f 6a 3b 47 b2 8f bd 23 3e f7 3b
       0.06007242 0.0035752913 -0.070164256 0.007545249
000090 da 5e 52 bc 68 bc 8b bd db 0d 54 bd 9d a6 7c 3c
       -0.012839997 -0.06823045 -0.051771026 0.015420583
0000a0 47 80 4b bd 62 c4 30 3d 96 bd 56 bd e2 bb e6 3d
       -0.04968288 0.043156035 -0.052426897 0.112663046
0000b0 c1 1b 2b bb 83 39 d0 bd 20 92 bf bc eb 63 c7 bc
       -0.0026109072 -0.101672195 -0.023385108 -0.024339637
0000c0 bd 79 d3 3a aa c6 65 bd a6 97 a7 3d 44 a8 e2 bd
       0.0016134303 -0.056097664 0.081832215 -0.1106725
0000d0 6c 50 53 3d ab cc a9 bd 41 bd c1 3c d8 2d 0a 3e
       0.05159037 -0.082909904 0.023649814 0.1349405
0000e0 87 a0 2a 3d b9 9e d7 3d e2 4a c4 3d 0e ec ae bd
       0.041656997 0.10528321 0.09584595 -0.085411176
0000f0 48 ae 2a bb 6d 99 85 3d aa 07 84 3c 7e 9d 6d 3d
       -0.002604382 0.06523404 0.016116936 0.058011524
000100 f0 1f c8 bd b6 39 05 be 47 29 e2 3d 6c 5a 76 3d
       -0.097717166 -0.13010296 0.11043029 0.060144827
000110 cf d2 c1 3d ee 97 ca 3d a5 2c 83 bc 1b 13 93 3d
       0.09464037 0.098922595 -0.0160125 0.071813785
000120 8c 1d 53 3d 4d 4f 0f bb 2c 94 e3 bd 5d bc 96 3c
       0.05154185 -0.0021867335 -0.11112246 0.018400365
000130 44 e3 a4 3d fb 52 13 bd c5 b8 3d 3c ca 30 61 3d
       0.0805116 -0.03596781 0.011579697 0.05497817
000140 c0 99 0b bd a8 ec ed bc 32 ed bf 3c 37 5b d4 3c
       -0.034082174 -0.02904351 0.023428533 0.0259224
000150 ad bf 0e 3d 1f b9 38 3d 9f 1f 52 bd c1 63 6a bc
       0.034850765 0.04509842 -0.051299687 -0.01430601
000160 f0 8b 4d bd df 5d 97 3c fe 82 aa 3c fe 59 d9 3c
       -0.050182283 0.018477378 0.020814415 0.02653217
000170 cc ff 4b 3d 75 9e d7 bd 33 21 04 bd 13 1b 1e 3e
       0.049804494 -0.1052827 -0.032258224 0.15440015
000180 63 d8 99 bd cd b7 1b 3d 02 9c 85 3c 90 f6 30 3b
       -0.075119756 0.038017083 0.016309742 0.0027002431
000190 ad 1e 76 bd 68 e6 54 bd 8d 45 3a 3d a6 0a 80 bd
       -0.06008785 -0.051977545 0.045476485 -0.06252031
0001a0 5b 4e 9b bd 87 81 bf 3d 07 9f e3 bd 51 61 20 bd
       -0.075833045 0.09350877 -0.111143164 -0.03915531
0001b0 55 aa ab bb 0a e7 71 3d 70 1e f6 bc 1f 5c cc 3c
       -0.005238811 0.059058227 -0.03004381 0.02494627
0001c0 27 c6 6c bd f2 93 83 bc b0 de 8a 3d 2d fa c0 bc
       -0.05780616 -0.016061757 0.067807555 -0.023556793
0001d0 af 76 0c 3d 4e 09 56 3d 64 a5 03 be ed 30 28 bb
       0.034292873 0.052254967 -0.1285606 -0.0025663928
0001e0 f6 5b d0 be 7b 84 f7 3c c3 a4 ad 3d 51 8f ff bd
       -0.4069516 0.030214539 0.084786914 -0.12478507
0001f0 de c6 5a be 5b b0 6e bd 92 e9 8b 3d e7 78 4c 3d
       -0.21364924 -0.058273654 0.068316594 0.04991999
000200 9b 4e 35 3e 10 81 93 3d dc 84 aa be 3e 9c 01 3e
       0.17705767 0.07202351 -0.3330449 0.12657258
000210 df f4 9d be e0 a0 31 bc ed c3 25 be 4e 62 bd bd
       -0.30850884 -0.010841578 -0.16188021 -0.09247266
000220 fd 1a ad bd af d1 75 3d eb d0 9a 3e c3 13 05 3e
       -0.08452413 0.060014423 0.30237517 0.1299582
000230 55 b8 97 bd 3e 7b ab bd 80 dc 3b bd 9e 9e 92 bd
       -0.074082054 -0.08373116 -0.045864582 -0.0715916
000240 0b a6 80 3d 41 7f 25 3e 24 19 a7 3c 6a 09 86 3f
       0.0628167 0.16161825 0.02039773 1.0471623
000250 84 c2 77 3e 73 9a 4a 3e 82 bf 69 bd 6e 2e 7b be
       0.24195296 0.1978548 -0.0570674 -0.2452943
000260 22 94 1a bd 7e 6a 9f 3d d6 e6 56 be cf 9d 7d be
       -0.037738927 0.07783984 -0.20986494 -0.2476723
000270 e5 db fc 3d 8d 1d 9e 3e 40 18 a1 3e 63 82 b4 3d
       0.12346629 0.3088192 0.31463814 0.08813932
000280 a8 58 cd be 4a 09 68 bc 2a 8a c1 3d 21 ac 36 3e
       -0.40106702 -0.014162371 0.09450181 0.178391
000290 ce 9f 5f bb 15 23 91 3d d3 81 a5 3d 93 02 31 3d
       -0.003412235 0.070867695 0.08081403 0.043215346
0002a0 c9 0b 25 bd 32 49 b5 bd 7a c0 d0 bd a5 8b fc 3d
       -0.040294442 -0.088518515 -0.10192962 0.123313226
0002b0 d4 68 71 be 99 d9 35 3e a8 7d dd 3c 80 13 83 3d
       -0.23575145 0.17758788 0.027037457 0.06400204
0002c0 cc d5 32 3e 1f a3 b5 bc 01 be 41 bd 77 5c 2c bd
       0.1746437 -0.022172509 -0.047300342 -0.04208037
0002d0 a1 af 8e bd 7f ef 17 3f 14 19 2d 3d c4 f2 34 bf
       -0.06967092 0.5934982 0.042260244 -0.7068293
0002e0 7f 8d 89 bd 7a 59 00 bf 4d 3a 10 be 0d 67 1b bd
       -0.06716441 -0.5013653 -0.1408474 -0.037940074
0002f0 ef 3b 9d bd 58 f8 2a be fd 37 7c 3c db a4 89 3d
       -0.07677447 -0.16696298 0.015394208 0.06720897
000300 33 44 17 3e cb 81 49 3e 70 1a 92 be 9c 63 f7 bd
       0.1477211 0.19678418 -0.28535795 -0.12079546
000310 71 77 18 be 0c 4c 95 bd 44 c0 cc 3b 1e f7 bd bd
       -0.14889313 -0.072898954 0.006248506 -0.092756495
000320 2f 53 35 be 3c c8 e3 bd c4 8e e7 3d 48 bd ea bd
       -0.17707513 -0.11122176 0.11306527 -0.11461884
000330 23 53 27 be 63 4a a0 bd fc 88 b2 3c d9 38 9e bd
       -0.16340308 -0.07826688 0.021793835 -0.077256866
000340 3f 8a 25 3d ac 64 d1 3e 97 f3 38 3d 4c bd 62 be
       0.040415045 0.4089712 0.04515418 -0.22142524
000350 00 89 48 3e c4 31 48 bc b8 b2 1f 3c cc bb 75 bd
       0.19583511 -0.012218896 0.0097472 -0.05999355
000360 19 96 45 3d a7 4f 31 be b3 fe 74 3d 3a 97 03 3d
       0.048238847 -0.17315541 0.059813213 0.032126643
000370 95 dd b9 bd c4 76 a7 3d a7 f8 e2 be 89 e6 3b bf
       -0.090754665 0.081769496 -0.44330332 -0.73398644
000380 d8 33 41 3d 3a 42 4e 3c be ff 3b 3e ed 77 a5 bd
       0.047168583 0.012589032 0.18359277 -0.08079515
000390 e8 72 18 3e b2 77 20 bd 3f 74 f8 bd 59 cb af 3e
       0.14887583 -0.03917665 -0.12131547 0.3433483
0003a0 5f 3f ec 3b f7 87 83 be 6e cd 00 3f af 15 15 bd
       0.007209703 -0.2568967 0.5031346 -0.036397632
0003b0 da 42 ad 3e 24 01 cb bd 7b 5e 85 3e c1 ec 7e 3b
       0.33840066 -0.09912327 0.26048645 0.003889844
0003c0 1d 56 25 bd ca 52 0f 3e 61 51 b3 be a1 03 c0 be
       -0.040365327 0.13996425 -0.35023025 -0.3750277
0003d0 7a 57 b4 3d 2b dd 0f 3e 50 05 4f 3e 52 09 98 bd
       0.08805747 0.14049213 0.2021687 -0.07423653
0003e0 ab 3b b5 3e 1e d6 12 bf c6 cb 52 3d a6 24 9f 3e
       0.35397086 -0.57357967 0.051463865 0.31082648
0003f0 e8 21 07 3f b1 0b 2e be 81 b1 09 3d 64 82 4e 3d
       0.5278611 -0.16996647 0.033616547 0.05041732

fc3.bias f4 [64]
000000 5f 2a 2a 3d 8b 2c 82 bd d1 7d 27 be f0 f4 71 3d
       0.041544314 -0.06356152 -0.16356589 0.05907148
000010 f0 b0 52 3c 7d 3c 61 3d b2 18 a4 3d d4 ff c6 3c
       0.012859568 0.054989327 0.08012523 0.02429191
000020 b1 7b d4 3d 16 e7 1a 3d 9d 68 25 bd e6 24 5f bd
       0.10375155 0.037818037 -0.04038297 -0.05447855
000030 1f c8 b2 bd dd c4 36 bd 95 87 42 bd 26 f7 03 bc
       -0.08729576 -0.044621337 -0.047492582 -0.00805453
000040 1a 28 3d bd ea da b2 3d ec 0a ae 3c 33 01 e0 3d
       -0.046180822 0.08733161 0.021245442 0.10937729
000050 08 7a 86 bd 97 90 a0 3d b4 93 81 3d ac 8c 89 bd
       -0.06566244 0.07840078 0.06327 -0.06716284
000060 75 83 91 bd ab ef 96 bd 47 25 b6 3d ae 78 af bb
       -0.071051516 -0.07369932 0.08893829 -0.0053549623
000070 b3 5e d6 3c 8a 55 cf 3d 72 3e 3e bd b5 82 ae 3b
       0.026168203 0.10123737 -0.04644627 0.00532564
000080 38 b1 f7 3c dd ea e9 3d 0c 87 7b bd 1d 6b 08 bc
       0.030235872 0.1142175 -0.061408088 -0.008326319
000090 97 aa 42 3d 49 d9 b8 3a 62 3d f9 bd 9b 8a b0 3d
       0.04752597 0.0014102842 -0.12169911 0.08620187
0000a0 71 8e cd 3d e7 5c 67 3d e3 ed 87 3d 18 7c 2b 3d
       0.10036934 0.056485083 0.0663717 0.041866392
0000b0 d0 7b e9 3d 7a 4a d1 3d 8d 70 c5 bc a6 37 cd 3d
       0.114005685 0.102192834 -0.02410152 0.1002038
0000c0 a6 2e 15 3d 6c 89 a3 bd 8d 9c 53 3d d1 50 c8 bc
       0.03642144 -0.079851955 0.05166297 -0.024452599
0000d0 80 52 6f bd 84 9f 97 3d 1e 31 c3 bc 56 8b 84 3d
       -0.058428288 0.07403472 -0.023827132 0.06471889
0000e0 0e b7 99 bd 76 d8 07 bd 3b c2 e7 3d dc d0 14 3d
       -0.07505618 -0.033165418 0.113163434 0.036331996
0000f0 c7 f4 14 3d c4 0e d1 3d 2f 28 9a bc ab 93 c2 3d
       0.03636625 0.102078944 -0.01881799 0.09500822

fc4.weight f4 [2, 64]
000000 6b 32 aa bd 25 50 4f bf 3a ff 63 be b9 3c 78 3e
       -0.08310398 -0.80981666 -0.2226533 0.24241914
000010 f2 b7 57 be df 80 38 bc 03 93 0b 3e e4 f6 c2 3d
       -0.21066263 -0.011261194 0.136303 0.09519747
000020 2d a6 08 be 3d 8f 64 3e 03 26 97 3d 06 26 44 be
       -0.13344641 0.22320266 0.07380297 -0.1915513
000030 7c a3 02 3e 7a 27 ca bd 20 6d 5c be ac 15 1a be
       0.12757677 -0.09870811 -0.21526003 -0.1504733
000040 ab 87 93 3d cc 7f ce 3d 00 c0 2d be cf 70 f9 bd
       0.07203611 0.10082969 -0.16967773 -0.1217972
000050 00 d0 f2 bb 5f ce da bd 3c c0 49 be 58 72 b2 3d
       -0.0074100494 -0.106838934 -0.19702238 0.087132156
000060 80 2f fb be 2f 21 ff 3c 28 e0 b1 bd da 83 de 3d
       -0.49059677 0.031143753 -0.086853325 0.108649924
000070 30 1a 1d be ea 36 14 3e d1 0e 6d be 21 04 96 3d
       -0.15342021 0.14474073 -0.23150183 0.07325006
000080 3e 23 b5 3d cb c4 1f be 63 e9 d6 3b 09 c1 a4 bd
       0.088446125 -0.15602414 0.0065585836 -0.08044631
000090 2a 2e a1 3d 2b 88 5f be a3 50 10 3f 7c df 59 3e
       0.07870133 -0.21829288 0.5637304 0.21276659
0000a0 ef 0b b1 3d 04 7c 54 3e 52 5c 0c 3e 5e 24 28 bd
       0.08644854 0.20750433 0.13707092 -0.041050307
0000b0 17 dc 06 3e be b0 f2 3d e8 6f 36 be fe 0d 36 3e
       0.13169895 0.11850117 -0.17816126 0.17778775
0000c0 18 71 94 bd 80 39 ca be 41 38 22 be ac ba 0b be
       -0.072481334 -0.39496994 -0.15841772 -0.13645428
0000d0 3b c9 90 3e 1f a3 1e be 8c 44 4e be 15 ea d4 bd
       0.28278527 -0.15491913 -0.20143336 -0.1039621
0000e0 d3 de 43 be d1 f5 cf 3d 67 37 17 bd ea 88 c4 3d
       -0.1912797 0.10154308 -0.03691807 0.09596427
0000f0 e3 f3 01 be bd d7 42 3e 89 0d 9e bd 6b f1 33 be
       -0.12690692 0.1902761 -0.077174254 -0.17572562
000100 27 15 22 be 66 f6 64 3d 24 e1 0f bf 20 c7 3a 3e
       -0.15828381 0.055899046 -0.5620291 0.18240023
000110 47 99 7d be 0a b1 7d be d6 96 45 be 95 1c 59 3d
       -0.24765502 -0.24774566 -0.1929582 0.053005774
000120 15 a3 6f bd 22 b3 92 bd f7 e2 34 be 60 46 a9 3d
       -0.058505137 -0.07163073 -0.17664705 0.08265376
000130 6b 6a d3 3e c5 2a c6 be 00 40 80 3e 36 d9 dd bd
       0.41292128 -0.38704506 0.25048828 -0.10832445
000140 e1 20 be 3d 7e d5 18 3e f6 12 03 be a4 a8 b8 3e
       0.09283615 0.14925191 -0.12800202 0.36066163
000150 5f c1 20 3d 2f eb e8 3d dd 22 50 3d 71 cc 29 3e
       0.039246913 0.11372983 0.0508145 0.16581894
000160 72 e1 0f be fa fc 4e 3d ef bf 15 3e 47 30 2f be
       -0.14050844 0.050534226 0.14623998 -0.1710826
000170 ba af e9 bd e9 46 24 be 80 59 97 bd cc 34 c9 bc
       -0.1141047 -0.16042675 -0.07390118 -0.024561308
000180 d7 1d ef 3b 9a a1 1e be 4f b5 bc 3d 74 63 8a be
       0.0072972584 -0.15491334 0.09214269 -0.27029002
000190 e4 07 ee bd ea 3f 0e 3e 7b d3 06 3e af f4 96 be
       -0.11622599 0.13891569 0.13166611 -0.29483554
0001a0 2d db 35 3d b6 53 81 3d 51 ce b2 3e c3 e8 00 be
       0.044398475 0.06314795 0.34923032 -0.12588792
0001b0 1d 31 27 be c0 a0 84 be c1 36 9c 3d 2f 7d 22 3e
       -0.16327329 -0.25903893 0.07627631 0.15868066
0001c0 4c 76 86 3e 6d b2 91 be c8 18 8a 3e e0 07 71 3d
       0.26262128 -0.2845644 0.26972032 0.0588454
0001d0 f7 bf b1 be 30 b6 f3 3d 74 30 f1 3d 18 c5 1b be
       -0.3471677 0.11899984 0.1177682 -0.15211904
0001e0 5c fd 58 be 88 eb 09 3e 52 47 25 3e 44 bc b7 3d
       -0.21190399 0.13468754 0.16140488 0.08971456
0001f0 80 88 e0 3c 2e b7 9a 3e 4f 34 97 3e 28 b0 19 be
       0.027408838 0.3021788 0.29532096 -0.15008605

fc4.bias f4 [2]
000000 00 23 12 3d ee 30 88 bd
       0.03567791 -0.066499576
